image_process/deepLearning/openml/mymodel.npz (npz, 333356 bytes, 6 tensors)

l2/b f4 [100]
0	0x00000000	0.0
1	0x00000000	0.0
2	0x00000000	0.0
3	0x00000000	0.0
4	0x00000000	0.0
5	0x00000000	0.0
6	0x00000000	0.0
7	0x00000000	0.0
8	0x00000000	0.0
9	0x00000000	0.0
10	0x00000000	0.0
11	0x00000000	0.0
12	0x00000000	0.0
13	0x00000000	0.0
14	0x00000000	0.0
15	0x00000000	0.0
16	0x00000000	0.0
17	0x00000000	0.0
18	0x00000000	0.0
19	0x00000000	0.0
20	0x00000000	0.0
21	0x00000000	0.0
22	0x00000000	0.0
23	0x00000000	0.0
24	0x00000000	0.0
25	0x00000000	0.0
26	0x00000000	0.0
27	0x00000000	0.0
28	0x00000000	0.0
29	0x00000000	0.0
30	0x00000000	0.0
31	0x00000000	0.0
32	0x00000000	0.0
33	0x00000000	0.0
34	0x00000000	0.0
35	0x00000000	0.0
36	0x00000000	0.0
37	0x00000000	0.0
38	0x00000000	0.0
39	0x00000000	0.0
40	0x00000000	0.0
41	0x00000000	0.0
42	0x00000000	0.0
43	0x00000000	0.0
44	0x00000000	0.0
45	0x00000000	0.0
46	0x00000000	0.0
47	0x00000000	0.0
48	0x00000000	0.0
49	0x00000000	0.0
50	0x00000000	0.0
51	0x00000000	0.0
52	0x00000000	0.0
53	0x00000000	0.0
54	0x00000000	0.0
55	0x00000000	0.0
56	0x00000000	0.0
57	0x00000000	0.0
58	0x00000000	0.0
59	0x00000000	0.0
60	0x00000000	0.0
61	0x00000000	0.0
62	0x00000000	0.0
63	0x00000000	0.0
64	0x00000000	0.0
65	0x00000000	0.0
66	0x00000000	0.0
67	0x00000000	0.0
68	0x00000000	0.0
69	0x00000000	0.0
70	0x00000000	0.0
71	0x00000000	0.0
72	0x00000000	0.0
73	0x00000000	0.0
74	0x00000000	0.0
75	0x00000000	0.0
76	0x00000000	0.0
77	0x00000000	0.0
78	0x00000000	0.0
79	0x00000000	0.0
80	0x00000000	0.0
81	0x00000000	0.0
82	0x00000000	0.0
83	0x00000000	0.0
84	0x00000000	0.0
85	0x00000000	0.0
86	0x00000000	0.0
87	0x00000000	0.0
88	0x00000000	0.0
89	0x00000000	0.0
90	0x00000000	0.0
91	0x00000000	0.0
92	0x00000000	0.0
93	0x00000000	0.0
94	0x00000000	0.0
95	0x00000000	0.0
96	0x00000000	0.0
97	0x00000000	0.0
98	0x00000000	0.0
99	0x00000000	0.0

l2/W f4 [100, 100]
0	0xbd1029f4	-0.03519626
1	0xbd22f495	-0.039784033
2	0x3e3758d1	0.17904975
3	0xbe5db235	-0.21650012
4	0x3e082765	0.13296278
5	0x3e020b5f	0.1269965
6	0x3c24d368	0.010060169
7	0x3d84df93	0.06487956
8	0x3e197124	0.14984566
9	0xbd4b18db	-0.04958425
10	0xbe2c3b75	-0.16819556
11	0x3e824224	0.25441086
12	0xbe518ab9	-0.20463075
13	0xbd078545	-0.03308608
14	0xbd6d00e2	-0.05786217
15	0xbd5dd1f7	-0.054155316
16	0xbd8c5185	-0.06851486
17	0xbdadf43d	-0.084938504
18	0x3db2b2de	0.087255225
19	0xbdb54f81	-0.08853055
20	0xbda90a7e	-0.08253954
21	0xbd0fa704	-0.035071388
22	0xbe494e41	-0.19658758
23	0x3d626e6c	0.055281088
24	0x3b914e20	0.004434362
25	0xbda2cc98	-0.079491794
26	0x3be967aa	0.0071229534
27	0x3d5ef0b7	0.054428782
28	0xbb06ab80	-0.0020549
29	0xbe51f09d	-0.20501943
30	0x3c592e0a	0.0132556055
31	0x3c68fe58	0.0142207965
32	0x3e346ba1	0.17619182
33	0xbe1fbc35	-0.15599139
34	0xbd08484c	-0.033272073
35	0x3da98f75	0.082793154
36	0xbe1f61d3	-0.1556466
37	0xbd0ccac7	-0.03437307
38	0x3ddb58b8	0.10710281
39	0xbdbda58a	-0.0926009
40	0x3d0a2140	0.033723116
41	0xbd9d8bd4	-0.07692686
42	0x3d90b406	0.07065587
43	0x3df2c30a	0.11853607
44	0x3da1ccec	0.07900414
45	0x3d180c47	0.037121084
46	0x3ce2824e	0.027650025
47	0x3d2646da	0.040594913
48	0xbc79d37a	-0.015248174
49	0x3d51121b	0.051042657
50	0xbe02df91	-0.12780596
51	0x3c133786	0.008985406
52	0x3d13d444	0.036091104
53	0xbe474a74	-0.19461995
54	0x3ddebd2e	0.10875927
55	0x3dfe9c32	0.12432136
56	0xbdaa9eab	-0.08331045
57	0xbcf465b7	-0.029833658
58	0x3dad4580	0.08460522
59	0x3d0f2d5d	0.03495537
60	0xbb903c9d	-0.004401757
61	0x3cafd5e5	0.021464298
62	0xbcf4790d	-0.029842878
63	0x3d13814c	0.03601198
64	0x3cae8766	0.021304797
65	0x3e1862d7	0.14881454
66	0x3ba70d98	0.005098056
67	0xbd630c4e	-0.055431657
68	0xbe18b568	-0.14912951
69	0x3caf55c9	0.02140321
70	0xbcbd5107	-0.023109926
71	0xbd6fbd35	-0.05853005
72	0xbe0fe339	-0.14051522
73	0xbb1d1dca	-0.0023974054
74	0x3dbd0a83	0.092305206
75	0x3d7fad4e	0.062421136
76	0xbde513e9	-0.11185438
77	0x3dec06f8	0.11524767
78	0xbd65cd67	-0.05610409
79	0x3d51e9a4	0.051248208
80	0xbd4112ae	-0.047136955
81	0x3d62a6d6	0.05533489
82	0xbde0dba8	-0.10979396
83	0xbdae7069	-0.08517534
84	0x3d85bf16	0.065305874
85	0xbcd0b362	-0.025476161
86	0x3cd9ca3c	0.02658569
87	0x3c5d4be3	0.013506862
88	0xbd4f3417	-0.050586786
89	0xbd658005	-0.056030292
90	0xbc2270e0	-0.009914607
91	0xbd3ac875	-0.045601327
92	0x3e692e93	0.22771673
93	0xbb297200	-0.0025855303
94	0x3b950237	0.004547383
95	0x3e4cac3b	0.19987576
96	0x3d8e0407	0.06934362
97	0xbd97c14c	-0.07409915
98	0xbd8e36f9	-0.06944079
99	0x3d3a3511	0.045460764
100	0x3d45d2fa	0.048296906
101	0x3e815054	0.25256598
102	0xbd2d4cbb	-0.042309504
103	0x3daf3850	0.08555663
104	0xbd7f6550	-0.06235248
105	0xbe02ca9e	-0.12772605
106	0x3d485a92	0.0489145
107	0xbb9ced56	-0.004789035
108	0x3bb77193	0.005598256
109	0x3c6ea44c	0.014565539
110	0x3dc2de4e	0.095150575
111	0xbbe2aace	-0.006917334
112	0xbce5493d	-0.027989024
113	0xbd16a71a	-0.036780454
114	0xbce61925	-0.028088162
115	0x3d88431a	0.066534236
116	0xbc923b9e	-0.017850693
117	0xbdfc4c82	-0.1231928
118	0xbc53770d	-0.012906802
119	0xbbf4469c	-0.0074547064
120	0xbd7d2c88	-0.061810046
121	0x3d957b24	0.07298878
122	0x3d9927e6	0.07478313
123	0x3cad66e7	0.021167232
124	0xbc7f88d3	-0.015596586
125	0x3d40987f	0.04702043
126	0x3dce3ae5	0.10069827
127	0xbc73c44d	-0.014878345
128	0x3d8aa112	0.06769003
129	0xbd79aa30	-0.06095332
130	0x3ddb707d	0.10714815
131	0xbc6ddb64	-0.014517639
132	0x3d80688f	0.06269943
133	0xbd7029ac	-0.05863349
134	0xbd5483c2	-0.051883467
135	0x3d815693	0.06315341
136	0x3d8b6dfa	0.06808086
137	0x3d7ce5a5	0.061742444
138	0xbd9855f7	-0.074382715
139	0x3e4a3791	0.1974776
140	0x3d8f8b39	0.070089765
141	0x3db00379	0.08594412
142	0xbcd0d069	-0.025490003
143	0x3e488fe5	0.19586141
144	0x3d987ba4	0.074454576
145	0xbd3aa39c	-0.045566186
146	0xbd84b021	-0.064789064
147	0xbda85322	-0.08218981
148	0x3d8dd629	0.069256134
149	0xbdd63b95	-0.10460583
150	0xbd2d2581	-0.042272095
151	0xbc95c0a8	-0.018280342
152	0xbe0ef8b5	-0.13962062
153	0xbe02f261	-0.12787773
154	0x3d87e434	0.06635323
155	0xbd3f5013	-0.046707224
156	0xbc946774	-0.018115737
157	0xbda74bcb	-0.08168753
158	0xbe28bcea	-0.16478315
159	0xbdba4d6b	-0.090967976
160	0xbe3eac07	-0.1862031
161	0xbd08d5b9	-0.033406947
162	0xbe1289c9	-0.14310373
163	0xbd096254	-0.03354104
164	0xbc42a853	-0.011880952
165	0x3e240e4e	0.16021082
166	0xbc69d4e9	-0.014271953
167	0x3e557113	0.20843916
168	0x3dfa921d	0.122349
169	0xbdb64885	-0.08900551
170	0x3da0c149	0.07849366
171	0x3dcbb547	0.09946685
172	0x3dcf3ab2	0.10118617
173	0xbc90068e	-0.01758125
174	0xbd0362e4	-0.03207673
175	0x3db42308	0.08795744
176	0x3d6ff470	0.058582723
177	0x3ca70b35	0.020391086
178	0x3d910bfd	0.07082365
179	0xbd734cb6	-0.05939933
180	0xbd1528fa	-0.03641603
181	0xbce9cd99	-0.02854042
182	0x3db95ec7	0.090512805
183	0x3c84f8cc	0.016231917
184	0x3db60d9d	0.08889315
185	0xbd975148	-0.0738855
186	0x3cef5650	0.029215962
187	0xbd22b9ab	-0.039727848
188	0x3d6b2e27	0.05741706
189	0x3dbd5c16	0.092460796
190	0x3d239b84	0.039943233
191	0x3d8fc2ac	0.070195526
192	0xbd1a12fc	-0.03761576
193	0x3cfd42c2	0.030915622
194	0x3d3fa381	0.04678679
195	0x3df768ea	0.12080558
196	0x3c76c16b	0.015060763
197	0xbddcc4fb	-0.107797585
198	0x3d7ae408	0.061252624
199	0xbd8421e9	-0.0645178
200	0x3df10b38	0.11769718
201	0xbd65437d	-0.055972565
202	0xbccb0c04	-0.024786003
203	0x3d9365b9	0.071971364
204	0x3c7337fb	0.01484489
205	0x3de0820f	0.10962307
206	0xbc93164c	-0.017954968
207	0x3e17ada6	0.14812335
208	0x3cfbb033	0.030723667
209	0x3e0d82f7	0.1381949
210	0x3d4d2b6f	0.05009025
211	0x3ca18376	0.019716006
212	0xbbbeefda	-0.0058269324
213	0x3be7a1f6	0.007068868
214	0xbd1af7a0	-0.03783381
215	0xbd7f6fe1	-0.062362555
216	0xbdd5e21b	-0.10443517
217	0xbe1ac92e	-0.15115806
218	0x3c85f8b0	0.016353935
219	0xbdaa5a03	-0.083179496
220	0x3d400c62	0.04688681
221	0xbc02393f	-0.007948219
222	0x3e019b55	0.1265691
223	0x3da2e67a	0.07954116
224	0x3b0329ce	0.0020013931
225	0xbc223c13	-0.009902018
226	0x3e32a24b	0.17444722
227	0x3d8fcb5e	0.07021211
228	0x3e1d0370	0.15333343
229	0x3d07b86d	0.033134867
230	0xbdb6bbc9	-0.08922536
231	0xbc4558fe	-0.012045143
232	0x3e17dcb3	0.14830284
233	0xbe4be261	-0.19910575
234	0xbcfbf136	-0.030754667
235	0x3c015999	0.007894897
236	0x3cead87a	0.028667677
237	0x3b5f8fde	0.003411285
238	0xbd542bef	-0.05179971
239	0x3e0ee706	0.13955316
240	0xbc210db8	-0.009829931
241	0xbe0ebdcb	-0.13939588
242	0x3d803b17	0.062612705
243	0x3e6418a6	0.22275028
244	0xbd7cfc97	-0.061764326
245	0xbcf3e94c	-0.02977433
246	0x3c10a592	0.008828538
247	0x3e4d9934	0.20077974
248	0xbcc70cc7	-0.024298085
249	0xbdd75854	-0.10514894
250	0xbd959db7	-0.07305472
251	0xbd19faf7	-0.037592854
252	0xbde623bb	-0.11237284
253	0xbd0c31f0	-0.03422731
254	0xbdd5a55b	-0.1043193
255	0xbd75f720	-0.06005013

l1/b f4 [100]
0	0x00000000	0.0
1	0x00000000	0.0
2	0x00000000	0.0
3	0x00000000	0.0
4	0x00000000	0.0
5	0x00000000	0.0
6	0x00000000	0.0
7	0x00000000	0.0
8	0x00000000	0.0
9	0x00000000	0.0
10	0x00000000	0.0
11	0x00000000	0.0
12	0x00000000	0.0
13	0x00000000	0.0
14	0x00000000	0.0
15	0x00000000	0.0
16	0x00000000	0.0
17	0x00000000	0.0
18	0x00000000	0.0
19	0x00000000	0.0
20	0x00000000	0.0
21	0x00000000	0.0
22	0x00000000	0.0
23	0x00000000	0.0
24	0x00000000	0.0
25	0x00000000	0.0
26	0x00000000	0.0
27	0x00000000	0.0
28	0x00000000	0.0
29	0x00000000	0.0
30	0x00000000	0.0
31	0x00000000	0.0
32	0x00000000	0.0
33	0x00000000	0.0
34	0x00000000	0.0
35	0x00000000	0.0
36	0x00000000	0.0
37	0x00000000	0.0
38	0x00000000	0.0
39	0x00000000	0.0
40	0x00000000	0.0
41	0x00000000	0.0
42	0x00000000	0.0
43	0x00000000	0.0
44	0x00000000	0.0
45	0x00000000	0.0
46	0x00000000	0.0
47	0x00000000	0.0
48	0x00000000	0.0
49	0x00000000	0.0
50	0x00000000	0.0
51	0x00000000	0.0
52	0x00000000	0.0
53	0x00000000	0.0
54	0x00000000	0.0
55	0x00000000	0.0
56	0x00000000	0.0
57	0x00000000	0.0
58	0x00000000	0.0
59	0x00000000	0.0
60	0x00000000	0.0
61	0x00000000	0.0
62	0x00000000	0.0
63	0x00000000	0.0
64	0x00000000	0.0
65	0x00000000	0.0
66	0x00000000	0.0
67	0x00000000	0.0
68	0x00000000	0.0
69	0x00000000	0.0
70	0x00000000	0.0
71	0x00000000	0.0
72	0x00000000	0.0
73	0x00000000	0.0
74	0x00000000	0.0
75	0x00000000	0.0
76	0x00000000	0.0
77	0x00000000	0.0
78	0x00000000	0.0
79	0x00000000	0.0
80	0x00000000	0.0
81	0x00000000	0.0
82	0x00000000	0.0
83	0x00000000	0.0
84	0x00000000	0.0
85	0x00000000	0.0
86	0x00000000	0.0
87	0x00000000	0.0
88	0x00000000	0.0
89	0x00000000	0.0
90	0x00000000	0.0
91	0x00000000	0.0
92	0x00000000	0.0
93	0x00000000	0.0
94	0x00000000	0.0
95	0x00000000	0.0
96	0x00000000	0.0
97	0x00000000	0.0
98	0x00000000	0.0
99	0x00000000	0.0

l1/W f4 [100, 784]
0	0x3cbafe1d	0.022826249
1	0xbcdf96e5	-0.027293632
2	0x3d4b565f	0.049642917
3	0xbd41d249	-0.047319684
4	0xbd28c225	-0.041200776
5	0xbd137f0f	-0.036009844
6	0x3ce2ccce	0.02768555
7	0x3d815fa1	0.06317068
8	0x3cf35ef3	0.029708361
9	0x3cc35d79	0.023848282
10	0x3ca768f1	0.020435782
11	0xbd173910	-0.036919653
12	0xbd3220c4	-0.04348828
13	0x3de61e89	0.11236293
14	0xbd07394d	-0.03301363
15	0xbbfdf6ba	-0.0077503594
16	0xbbcc9803	-0.006243707
17	0xbc9d47b3	-0.019199228
18	0x3d920e57	0.07131641
19	0x3ce58d1e	0.028021391
20	0x3d955ed1	0.072934754
21	0x3d2e42f0	0.042544305
22	0xbd1e2ef1	-0.038618986
23	0xbd77405e	-0.06036412
24	0x3d21951c	0.039448842
25	0x3b8338bc	0.004004566
26	0x3c143a0f	0.009047045
27	0xbcb574f0	-0.022150487
28	0x3d13a8ad	0.036049534
29	0xbcd660ab	-0.026169142
30	0xbcdcff19	-0.026977109
31	0xbc68c729	-0.01420764
32	0xbca68105	-0.020325193
33	0xbd15048d	-0.036381293
34	0x3b9c05bf	0.004761427
35	0x3c712b40	0.014719784
36	0xbc15d6a7	-0.009145415
37	0x3c6e0138	0.014526658
38	0xbcbc8c03	-0.023015982
39	0x3d3ecfde	0.046584956
40	0x3c72d494	0.01482119
41	0x3d1f3357	0.03886732
42	0xbbca0c92	-0.0061660493
43	0xbd010986	-0.031503223
44	0x3cc79262	0.024361793
45	0xbd189891	-0.037254874
46	0xbc71a7c3	-0.01474947
47	0x3a43fc39	0.0007476244
48	0x3cb2718f	0.021782665
49	0x3cc0a558	0.023516342
50	0xbd35870a	-0.044318236
51	0x3d4d7104	0.05015661
52	0x3d159320	0.036517262
53	0xbcb1c4fa	-0.021700371
54	0xbadc6300	-0.0016814172
55	0xbd96b518	-0.0735876
56	0x3d6b51ab	0.05745093
57	0xbd15c256	-0.036562286
58	0x3a797774	0.0009516396
59	0xbd301830	-0.042991817
60	0xbca11fc5	-0.01966847
61	0x3da6981f	0.081344835
62	0x3d0911fc	0.033464417
63	0xbd965150	-0.07339728
64	0x3c3cdc45	0.011527126
65	0xbcf7b000	-0.03023529
66	0xbd06a396	-0.03287085
67	0xbd12a7ad	-0.03580444
68	0xbca12f28	-0.019675806
69	0xbb9b1119	-0.004732263
70	0x3ca1eda9	0.019766646
71	0xbbbc1d92	-0.0057408297
72	0xbad90bc7	-0.0016559296
73	0xbd03e769	-0.03220311
74	0xbd9b49ce	-0.075824365
75	0x3d0c7adf	0.034296867
76	0xbce381f7	-0.027771933
77	0xbd178a3b	-0.03699706
78	0x3d7c3619	0.06157503
79	0xbc11c160	-0.008896202
80	0xbc182fd9	-0.0092887515
81	0xbd8e0c22	-0.06935908
82	0xbd0a4868	-0.03376046
83	0x3d20b970	0.039239347
84	0x3c964eba	0.018348087
85	0xbd2e7051	-0.042587582
86	0x3c038e52	0.008029537
87	0xbc355547	-0.011067695
88	0x3cbcbd67	0.023039533
89	0xbc37c1e6	-0.011215663
90	0xbd3398ab	-0.043846767
91	0x3d715839	0.058922026
92	0x3d324192	0.043519564
93	0x3c63b36d	0.013897759
94	0xbd520aab	-0.051279705
95	0x3ca21a46	0.019787919
96	0xbc94ca6d	-0.01816293
97	0x3d983a39	0.0743298
98	0xbc9f67e5	-0.01945872
99	0xbcb28075	-0.021789769
100	0x3b89f7b1	0.0042104353
101	0x3c265aad	0.010153455
102	0x3c5ed5e1	0.013600797
103	0xbc1f5bbc	-0.009726461
104	0x3d69e1d3	0.05710013
105	0xbd195a40	-0.037439585
106	0xbda2ff31	-0.0795883
107	0x3d2973dc	0.041370258
108	0x3cd48af2	0.02594516
109	0xbc931198	-0.017952725
110	0xbcae680e	-0.021289852
111	0xbd052296	-0.032503687
112	0x3d0dcdc2	0.034620054
113	0x3d4347a7	0.047675755
114	0xbd5a4924	-0.05329241
115	0xbcdedf83	-0.027206188
116	0x3c090f69	0.0083654905
117	0xbd097d99	-0.033567045
118	0xbd970818	-0.07374591
119	0xbd3f27ad	-0.046668697
120	0x3c7067f4	0.014673222
121	0x3d60844f	0.05481368
122	0xbb973727	-0.004614729
123	0x3c1dbeee	0.009628041
124	0x3d3e4bae	0.046458893
125	0xbc6787f7	-0.014131538
126	0x3c2b60e0	0.0104601085
127	0x3b23e401	0.0025007727
128	0x3bd53727	0.006506819
129	0x3d443f7b	0.047912102
130	0xbd1afaed	-0.037836958
131	0x3d23b378	0.039966077
132	0x3c237f3c	0.0099790655
133	0x3cb9547b	0.022623291
134	0x3d4b5142	0.04963804
135	0xbd7e3534	-0.062062457
136	0x3c84a4c1	0.016191842
137	0x3bffe2ef	0.007809035
138	0x3d1ec77c	0.038764462
139	0x3bdc0c39	0.0067153242
140	0x3bb7cc37	0.005609061
141	0xbd18eafe	-0.03733348
142	0xbd3f8766	-0.046759985
143	0x3c82625f	0.015916048
144	0x3ce8341d	0.028345162
145	0xbd0215bc	-0.03175901
146	0x3ce6c9bd	0.028172368
147	0xbd16a434	-0.03677769
148	0xbd7b20cf	-0.061310586
149	0xbcc19990	-0.023632795
150	0x3d224291	0.039614264
151	0x3d0b6fd9	0.034042213
152	0xbcf42133	-0.029800987
153	0xbd938cd4	-0.07204595
154	0xbc730abd	-0.014834103
155	0xbdc7ec61	-0.097618826
156	0x3c362374	0.011116851
157	0x3d363708	0.044486076
158	0xbcae5074	-0.021278597
159	0xbce198db	-0.027538707
160	0x3c6d1fdc	0.014472928
161	0xbc0823fd	-0.0083093615
162	0x3cb45ef2	0.02201793
163	0x3b6864f7	0.003546057
164	0xbc4df744	-0.01257116
165	0xbd1f1b06	-0.03884413
166	0x3d1aa5cb	0.03775577
167	0x3d650e58	0.055921882
168	0xbc6d3563	-0.01447806
169	0xbaf4ebc2	-0.0018685984
170	0x3ccf8ff2	0.025337193
171	0x3be965af	0.0071227173
172	0xbb0321c8	-0.002000915
173	0x3d83fa47	0.06444221
174	0xbd0aaba5	-0.0338551
175	0x3c51a7b1	0.012796328
176	0xbb0e09b7	-0.002167327
177	0xbc647959	-0.013944947
178	0x3c8fbad3	0.01754514
179	0xbd4f29fe	-0.050577156
180	0x3d2116d1	0.0393284
181	0xbd101ce1	-0.03518379
182	0x3cccef9e	0.025016602
183	0xbd4fef84	-0.05076553
184	0x3c4cfd7a	0.012511605
185	0xbdaf1c9e	-0.0855038
186	0xbc9733d1	-0.018457325
187	0x3c3e6f9a	0.011623288
188	0x3ca6096b	0.020268163
189	0x3bd0e25e	0.0063746413
190	0xbc0fb8a1	-0.008772046
191	0xbce7c425	-0.028291771
192	0x3cb09848	0.021556988
193	0xbbbf87b1	-0.005845033
194	0xbb2ae3a7	-0.0026075633
195	0x3d29a300	0.041415215
196	0xbb32f0b5	-0.0027304117
197	0x3c854338	0.016267404
198	0x3ba111b2	0.0049154395
199	0xbcab13b2	-0.020883415
200	0x3cbe270c	0.023211978
201	0x3d6f9967	0.058495905
202	0xbd2f0cab	-0.04273669
203	0xbce68538	-0.028139696
204	0x3bbb8cc3	0.005723567
205	0xbc26a1b7	-0.010170392
206	0xbbc4f8f2	-0.006011122
207	0x3d89bc48	0.06725365
208	0x3c04c0d1	0.008102612
209	0x3b624d58	0.0034530964
210	0x3d616809	0.055030856
211	0x3b307e4d	0.002693075
212	0xbcbf894f	-0.023380904
213	0xbd2b3f51	-0.04180843
214	0xbcb77a95	-0.022397319
215	0x3cd39332	0.025827024
216	0xbd24ceb3	-0.040236186
217	0xbc2661ea	-0.0101551805
218	0xba6b58eb	-0.00089777884
219	0xbd46d949	-0.048547063
220	0x3c5d55c2	0.013509216
221	0x3c4edb8e	0.012625588
222	0xbb763fb8	-0.00375746
223	0xbc2c2a25	-0.010508095
224	0xbcfd6782	-0.030933145
225	0x3d0bff36	0.034178935
226	0xbcc7a8f8	-0.024372563
227	0x3d5f3a06	0.054498695
228	0x3c79fa8f	0.015257492
229	0xbd0519cb	-0.0324953
230	0x3da0ed73	0.0785779
231	0xbc10df71	-0.008842335
232	0x3d26e912	0.040749617
233	0x3a7b9795	0.00095974776
234	0x3d3d1c8c	0.046169803
235	0x3b948ce8	0.004533399
236	0xbb658b5e	-0.0035025696
237	0x3d0a1c9e	0.033718698
238	0x3d154d87	0.03645089
239	0xbc20c1d7	-0.00981184
240	0xbb44ba49	-0.0030018261
241	0xbce33ba5	-0.027738402
242	0xbc845bd6	-0.016157072
243	0x3d3f33f7	0.046680417
244	0xbc86aee7	-0.016440822
245	0x3c6fd5fc	0.01463842
246	0xbcd367ac	-0.02580627
247	0xbd6142f5	-0.054995496
248	0xbce29a1b	-0.027661374
249	0xbcc102c0	-0.023560882
250	0x3bf6f511	0.0075365384
251	0x3c247da9	0.010039725
252	0xbd387417	-0.045032587
253	0x3d035f20	0.03207314
254	0x3b85194e	0.0040618544
255	0x3d29aea1	0.041426305

l3/b f4 [10]
0	0x00000000	0.0
1	0x00000000	0.0
2	0x00000000	0.0
3	0x00000000	0.0
4	0x00000000	0.0
5	0x00000000	0.0
6	0x00000000	0.0
7	0x00000000	0.0
8	0x00000000	0.0
9	0x00000000	0.0

l3/W f4 [10, 100]
0	0x3e53e620	0.20693254
1	0x3d8395dc	0.06425068
2	0xbdc9b21c	-0.09848425
3	0xbe73d1a6	-0.23810443
4	0xbc69b4b1	-0.014264272
5	0x3e11eeee	0.142513
6	0x3c37d1df	0.011219471
7	0x3c21c939	0.009874635
8	0xbd58d3c7	-0.05293634
9	0x3dc92460	0.09821391
10	0x3db2279b	0.086989604
11	0x3df6c355	0.120489754
12	0xbdc26d94	-0.094935566
13	0x3d61b395	0.055102903
14	0xbda8f947	-0.08250671
15	0x3bf22327	0.0073894444
16	0x3c15dd3c	0.009146985
17	0x3c179a02	0.009253027
18	0x3e0d89a4	0.13822037
19	0x3cff95c5	0.031199345
20	0x3da4e80c	0.08052072
21	0x3dfb8feb	0.122833095
22	0x3c9a3e8a	0.01882865
23	0x3cd3e5ef	0.025866477
24	0xbe1d36d7	-0.15352951
25	0xbd8d4d54	-0.06899515
26	0xbdbf389b	-0.093369685
27	0xbc73b255	-0.014874061
28	0xbd291ad3	-0.041285347
29	0xbd5a76c2	-0.053335913
30	0xbe451f43	-0.19250207
31	0x3c17c9a2	0.009264382
32	0x3b43e4aa	0.0029890933
33	0x3e2c0bb0	0.16801333
34	0x3d81bd62	0.0633495
35	0xbc03ed5b	-0.008052195
36	0xbe05379b	-0.13009493
37	0x3e181441	0.14851476
38	0xbda8a3f7	-0.08234399
39	0x3d9ec00b	0.07751473
40	0x3e18a645	0.14907177
41	0x3d8e3bc1	0.06944991
42	0xbd6a3228	-0.05717674
43	0xbde9a223	-0.11407878
44	0xbd07a0a3	-0.03311218
45	0x3dedceb2	0.116116896
46	0x3d41fa28	0.04735771
47	0xbb98731e	-0.004652395
48	0x3cc244b8	0.023714408
49	0xbe12fab4	-0.14353448
50	0xbd7441bc	-0.059633
51	0x3d617b76	0.055049382
52	0xbe02f0fa	-0.12787238
53	0xbe2ccd23	-0.16875128
54	0xbe879fa6	-0.2648899
55	0xbd84ad1a	-0.06478329
56	0x3d60b4b4	0.054859832
57	0xbe2caf7d	-0.16863818
58	0x3ca573c4	0.020196803
59	0xbcd74f8f	-0.026283054
60	0xbd1216e4	-0.03566636
61	0xbd5c4645	-0.05377795
62	0x3dd76b31	0.10518492
63	0x3d168926	0.03675189
64	0xbd8b4d27	-0.06801825
65	0xbde8d6d5	-0.11369101
66	0xbd3335c6	-0.043752454
67	0xbd267690	-0.040640414
68	0xbda6cada	-0.081441596
69	0x3d52ba8a	0.05144743
70	0x3c800458	0.015627071
71	0xbaf6e6b5	-0.0018837067
72	0xbe117c67	-0.14207612
73	0xbe0b2386	-0.1358777
74	0x3d86512a	0.065584496
75	0xbd839e26	-0.06426649
76	0x3d396a3f	0.04526734
77	0x3d117514	0.035512045
78	0x3d7154b3	0.058918666
79	0xbcd70663	-0.026248163
80	0xbdcf5378	-0.10123342
81	0x3d10eb62	0.03538073
82	0x3e36811a	0.17822686
83	0x3aa65cb6	0.0012692425
84	0x3cf26b8c	0.029592298
85	0xbe06fd0b	-0.13182466
86	0x3e1a92d8	0.15095079
87	0xbd1e7cad	-0.03869312
88	0xbd772529	-0.060338173
89	0x3df1f8d7	0.118150406
90	0x3dc5f1fe	0.09665297
91	0xbb908284	-0.00441009
92	0xbe2b1286	-0.16706285
93	0xbcd155f2	-0.025553677
94	0xbe12fb8c	-0.1435377
95	0xbe00108b	-0.1250631
96	0xbe16b4d5	-0.1471742
97	0xbdbc8934	-0.09205857
98	0xbd543efd	-0.051817883
99	0x3d45fe79	0.048338387
100	0xbe30dacb	-0.17270963
101	0xbc923427	-0.017847134
102	0x3de4c44b	0.111702524
103	0x3d704bb8	0.05866596
104	0x3c4e6649	0.012597629
105	0xbd3357ff	-0.04378509
106	0xbe35db97	-0.17759548
107	0xbd441874	-0.047874883
108	0x3cb77bc5	0.022397885
109	0x3d84a9c2	0.06477691
110	0x3e006222	0.12537435
111	0x3e119fb8	0.14221084
112	0xbd001e5d	-0.031278957
113	0xbe64f535	-0.22359164
114	0x3e094838	0.13406456
115	0x3e00177e	0.12508962
116	0xbd7fe614	-0.06247528
117	0xbd8d4840	-0.06898546
118	0xbe28fec2	-0.16503432
119	0x3b7017b3	0.003663522
120	0x3c3c0daf	0.011477872
121	0x3dd13276	0.10214703
122	0xbbb6696c	-0.0055667665
123	0xbda1d67e	-0.07902239
124	0xbd114b77	-0.03547236
125	0x3db8fbfa	0.09032436
126	0xbdeb36cb	-0.1148506
127	0xbe097912	-0.13425091
128	0x3dd26cb1	0.102746375
129	0xbced8248	-0.028992787
130	0x3dacea24	0.08443096
131	0x3db2e599	0.087351985
132	0xbda11458	-0.078652084
133	0x3e3bf991	0.18356921
134	0x3dcad1a1	0.09903265
135	0x3db112f6	0.08646195
136	0xbcbd60ca	-0.023117442
137	0xbcab49bd	-0.020909185
138	0xbda11b42	-0.07866527
139	0x3d9e7060	0.077362776
140	0xbd82d991	-0.06389154
141	0xbd787017	-0.060653772
142	0xbbdce51b	-0.0067411787
143	0xbc6d446a	-0.014481643
144	0xbddf1ff9	-0.1089477
145	0xbda5e4d9	-0.0810029
146	0xbd965496	-0.07340352
147	0x3ddcb128	0.107759774
148	0xbc6af60a	-0.014340887
149	0x3c578869	0.013155081
150	0x3c5d3895	0.01350226
151	0x3b0c5ec8	0.0021418799
152	0xbdf838e9	-0.1212023
153	0xbd397e15	-0.045286257
154	0xbd3ffeb7	-0.046873774
155	0xbd7b3463	-0.061329257
156	0x3db2d098	0.08731192
157	0xbd849f2b	-0.064756714
158	0x3e10241d	0.14076276
159	0xbd8cd1bd	-0.06875942
160	0xbe06322e	-0.1310508
161	0xbd9c6e94	-0.076382786
162	0xbde007f4	-0.10939017
163	0xbd8b1e6f	-0.06792914
164	0x3c993374	0.018701293
165	0x3dbf7740	0.09348917
166	0xbde4aab1	-0.11165369
167	0x3a9ac1f4	0.001180707
168	0x3ddd6a55	0.10811297
169	0xbd935c97	-0.071953945
170	0xbc8d88cb	-0.017277142
171	0x3d404bb6	0.046947204
172	0x3d0452ad	0.03230541
173	0x3dd7e19d	0.10541079
174	0x3df42f3a	0.1192307
175	0x3d99eb9a	0.075156406
176	0x3d1f7684	0.038931385
177	0x3e390c78	0.18071163
178	0xbc7f7a0d	-0.015593064
179	0x3c80aa20	0.015706122
180	0xbd1e753d	-0.038686026
181	0xbc7ddf64	-0.015495155
182	0x3dcc36c5	0.09971384
183	0xbdf681a2	-0.12036444
184	0xbda788a3	-0.08180358
185	0x3e193477	0.1496142
186	0x3d61d12a	0.055131115
187	0x3e31535d	0.17316957
188	0x3d8d7115	0.06906334
189	0x3d87984c	0.06620845
190	0xbddeb93f	-0.10875177
191	0x3d56ba46	0.052423738
192	0x3d802095	0.062562145
193	0x3e5897be	0.21151635
194	0xbd38dfdd	-0.045135368
195	0x3c66d95a	0.014089907
196	0x3d98b3e7	0.07456189
197	0x3e58b895	0.21164162
198	0x3c84be2a	0.016203959
199	0xbd35b5e5	-0.04436292
200	0x3dd7b8e5	0.10533313
201	0xbd990b35	-0.07472841
202	0xbcab0ede	-0.020881113
203	0xbbb9be07	-0.005668405
204	0x3cafa7d7	0.021442337
205	0x3cf04ed2	0.02933446
206	0x3e8af406	0.271393
207	0xbd20fa8c	-0.03930144
208	0xbdddf053	-0.10836854
209	0xbd6c1a79	-0.057642434
210	0xbd87d89c	-0.06633112
211	0xbd95e66c	-0.0731934
212	0xbdd3bca0	-0.10338712
213	0x3d31d5f4	0.043416932
214	0x3dc4a060	0.096009016
215	0xbe165775	-0.146818
216	0x3d093739	0.03349993
217	0xbdd67afe	-0.10472678
218	0x3def451d	0.11683104
219	0x3d9bc691	0.07606233
220	0xbbd3d6b5	-0.006464804
221	0xbd7d9946	-0.06191375
222	0xbd6918a7	-0.056908276
223	0xbdd08f60	-0.101835966
224	0x3e1378af	0.14401506
225	0x3e2e1f38	0.17004097
226	0x3d825909	0.06364638
227	0x3ccf7750	0.025325447
228	0x3e2c707f	0.16839789
229	0xbe4d4afc	-0.20048136
230	0xbd371af8	-0.044703454
231	0x3c802938	0.015644655
232	0x3da47a13	0.08031096
233	0xbd721735	-0.059104163
234	0x3bbe96c7	0.005816314
235	0xbd864b14	-0.06557289
236	0x3d85ba46	0.065296695
237	0xbdbccb1b	-0.09218427
238	0xbe456fb9	-0.192809
239	0x3e0fe419	0.14051856
240	0xbde97854	-0.11399904
241	0xbdea26cf	-0.114331834
242	0xbd223527	-0.03960147
243	0x3d907836	0.070541784
244	0x3d3aa2e3	0.045565497
245	0xbc4143eb	-0.011795978
246	0xbd93b462	-0.0721214
247	0xbdca6dbf	-0.09884214
248	0x3d8f308a	0.0699168
249	0x3dcfe88e	0.10151778
250	0x3e0eac9b	0.13933031
251	0xbd4651af	-0.048417743
252	0xbe0bd7b8	-0.13656509
253	0xbe0787a5	-0.13235338
254	0x3de6f522	0.11277224
255	0xbd2d7b76	-0.04235407
